…
│ (Conv2D)            │ 512)              │            │                   │
├─────────────────────┼───────────────────┼────────────┼───────────────────┤
│ initial_bn          │ (None, 14, 14,    │      2,048 │ initial_conv_lay… │
│ (BatchNormalizatio… │ 512)              │            │                   │
├─────────────────────┼───────────────────┼────────────┼───────────────────┤
│ initial_act         │ (None, 14, 14,    │          0 │ initial_bn[0][0]  │
│ (Activation)        │ 512)              │            │                   │
├─────────────────────┼───────────────────┼────────────┼───────────────────┤
│ initial_sepconv_la… │ (None, 7, 7, 512) │    267,264 │ initial_act[0][0] │
│ (SeparableConv2D)   │                   │            │                   │
├─────────────────────┼───────────────────┼────────────┼───────────────────┤
│ layer1_conv1        │ (None, 7, 7, 256) │    135,936 │ initial_sepconv_… │
│ (SeparableConv2D)   │                   │            │                   │
├─────────────────────┼───────────────────┼────────────┼───────────────────┤
│ layer1_bn1          │ (None, 7, 7, 256) │      1,024 │ layer1_conv1[0][… │
│ (BatchNormalizatio… │                   │            │                   │
├─────────────────────┼───────────────────┼────────────┼───────────────────┤
│ layer1_act1         │ (None, 7, 7, 256) │          0 │ layer1_bn1[0][0]  │
│ (Activation)        │                   │            │                   │
├─────────────────────┼───────────────────┼────────────┼───────────────────┤
│ layer1_conv2        │ (None, 7, 7, 256) │     68,096 │ layer1_act1[0][0] │
│ (SeparableConv2D)   │                   │            │                   │
├─────────────────────┼───────────────────┼────────────┼───────────────────┤
│ layer1_bn2          │ (None, 7, 7, 256) │      1,024 │ layer1_conv2[0][… │
│ (BatchNormalizatio… │                   │            │                   │
├─────────────────────┼───────────────────┼────────────┼───────────────────┤
│ layer1_act2         │ (None, 7, 7, 256) │          0 │ layer1_bn2[0][0]  │
│ (Activation)        │                   │            │                   │
├─────────────────────┼───────────────────┼────────────┼───────────────────┤
│ layer1_conv3        │ (None, 7, 7, 512) │    131,584 │ layer1_act2[0][0] │
│ (Conv2D)            │                   │            │                   │
├─────────────────────┼───────────────────┼────────────┼───────────────────┤
│ layer1_add (Add)    │ (None, 7, 7, 512) │          0 │ initial_sepconv_… │
│                     │                   │            │ layer1_conv3[0][… │
├─────────────────────┼───────────────────┼────────────┼───────────────────┤
│ layer2_conv1        │ (None, 7, 7, 256) │    135,936 │ layer1_add[0][0]  │
│ (SeparableConv2D)   │                   │            │                   │
├─────────────────────┼───────────────────┼────────────┼───────────────────┤
│ layer2_bn1          │ (None, 7, 7, 256) │      1,024 │ layer2_conv1[0][… │
│ (BatchNormalizatio… │                   │            │                   │
├─────────────────────┼───────────────────┼────────────┼───────────────────┤
│ layer2_act1         │ (None, 7, 7, 256) │          0 │ layer2_bn1[0][0]  │
│ (Activation)        │                   │            │                   │
├─────────────────────┼───────────────────┼────────────┼───────────────────┤
│ layer2_conv2        │ (None, 7, 7, 256) │     68,096 │ layer2_act1[0][0] │
│ (SeparableConv2D)   │                   │            │                   │
├─────────────────────┼───────────────────┼────────────┼───────────────────┤
│ layer2_bn2          │ (None, 7, 7, 256) │      1,024 │ layer2_conv2[0][… │
│ (BatchNormalizatio… │                   │            │                   │
├─────────────────────┼───────────────────┼────────────┼───────────────────┤
│ layer2_act2         │ (None, 7, 7, 256) │          0 │ layer2_bn2[0][0]  │
│ (Activation)        │                   │            │                   │
├─────────────────────┼───────────────────┼────────────┼───────────────────┤
│ layer2_conv3        │ (None, 7, 7, 512) │    131,584 │ layer2_act2[0][0] │
│ (Conv2D)            │                   │            │                   │
├─────────────────────┼───────────────────┼────────────┼───────────────────┤
│ layer2_add (Add)    │ (None, 7, 7, 512) │          0 │ layer1_add[0][0], │
│                     │                   │            │ layer2_conv3[0][… │
├─────────────────────┼───────────────────┼────────────┼───────────────────┤
│ layer3_conv1        │ (None, 7, 7, 256) │    135,936 │ layer2_add[0][0]  │
│ (SeparableConv2D)   │                   │            │                   │
├─────────────────────┼───────────────────┼────────────┼───────────────────┤
│ layer3_bn1          │ (None, 7, 7, 256) │      1,024 │ layer3_conv1[0][… │
│ (BatchNormalizatio… │                   │            │                   │
├─────────────────────┼───────────────────┼────────────┼───────────────────┤
│ layer3_act1         │ (None, 7, 7, 256) │          0 │ layer3_bn1[0][0]  │
│ (Activation)        │                   │            │                   │
├─────────────────────┼───────────────────┼────────────┼───────────────────┤
│ layer3_conv2        │ (None, 7, 7, 256) │     68,096 │ layer3_act1[0][0] │
│ (SeparableConv2D)   │                   │            │                   │
├─────────────────────┼───────────────────┼────────────┼───────────────────┤
│ layer3_bn2          │ (None, 7, 7, 256) │      1,024 │ layer3_conv2[0][… │
│ (BatchNormalizatio… │                   │            │                   │
├─────────────────────┼───────────────────┼────────────┼───────────────────┤
│ layer3_act2         │ (None, 7, 7, 256) │          0 │ layer3_bn2[0][0]  │
│ (Activation)        │                   │            │                   │
├─────────────────────┼───────────────────┼────────────┼───────────────────┤
│ layer3_conv3        │ (None, 7, 7, 512) │    131,584 │ layer3_act2[0][0] │
│ (Conv2D)            │                   │            │                   │
├─────────────────────┼───────────────────┼────────────┼───────────────────┤
│ layer3_add (Add)    │ (None, 7, 7, 512) │          0 │ layer2_add[0][0], │
│                     │                   │            │ layer3_conv3[0][… │
├─────────────────────┼───────────────────┼────────────┼───────────────────┤
│ layer4_conv1        │ (None, 7, 7, 256) │    135,936 │ layer3_add[0][0]  │
│ (SeparableConv2D)   │                   │            │                   │
├─────────────────────┼───────────────────┼────────────┼───────────────────┤
│ layer4_bn1          │ (None, 7, 7, 256) │      1,024 │ layer4_conv1[0][… │
│ (BatchNormalizatio… │                   │            │                   │
├─────────────────────┼───────────────────┼────────────┼───────────────────┤
│ layer4_act1         │ (None, 7, 7, 256) │          0 │ layer4_bn1[0][0]  │
│ (Activation)        │                   │            │                   │
├─────────────────────┼───────────────────┼────────────┼───────────────────┤
│ layer4_conv2        │ (None, 7, 7, 256) │     68,096 │ layer4_act1[0][0] │
│ (SeparableConv2D)   │                   │            │                   │
├─────────────────────┼───────────────────┼────────────┼───────────────────┤
│ layer4_bn2          │ (None, 7, 7, 256) │      1,024 │ layer4_conv2[0][… │
│ (BatchNormalizatio… │                   │            │                   │
├─────────────────────┼───────────────────┼────────────┼───────────────────┤
│ layer4_act2         │ (None, 7, 7, 256) │          0 │ layer4_bn2[0][0]  │
│ (Activation)        │                   │            │                   │
├─────────────────────┼───────────────────┼────────────┼───────────────────┤
│ layer4_conv3        │ (None, 7, 7, 512) │    131,584 │ layer4_act2[0][0] │
│ (Conv2D)            │                   │            │                   │
├─────────────────────┼───────────────────┼────────────┼───────────────────┤
│ layer4_add (Add)    │ (None, 7, 7, 512) │          0 │ layer3_add[0][0], │
│                     │                   │            │ layer4_conv3[0][… │
├─────────────────────┼───────────────────┼────────────┼───────────────────┤
│ mixing_stage        │ (None, 7, 7, 200) │    102,600 │ layer4_add[0][0]  │
│ (Conv2D)            │                   │            │                   │
├─────────────────────┼───────────────────┼────────────┼───────────────────┤
│ spatial_pool_stage  │ (None, 1, 1, 200) │     10,000 │ mixing_stage[0][… │
│ (DepthwiseConv2D)   │                   │            │                   │
├─────────────────────┼───────────────────┼────────────┼───────────────────┤
│ embeddings          │ (None, 200)       │          0 │ spatial_pool_sta… │
│ (Flatten)           │                   │            │                   │
└─────────────────────┴───────────────────┴────────────┴───────────────────┘
 Total params: 4,509,618 (17.20 MB)
 Trainable params: 2,252,248 (8.59 MB)
 Non-trainable params: 5,120 (20.00 KB)
 Optimizer params: 2,252,250 (8.59 MB)
